best_lstm_model.pth (torch, 802925 bytes, 10 tensors)

encoder.weight_ih_l0 f4 [512, 2]
000000 cf 57 9b 3e 0c 23 9e 3e 35 1d 17 bf 7c 19 45 bf
       0.3034043 0.30886114 -0.5902894 -0.7699201
000010 9c b5 d9 be ee 84 57 bf 55 ab a7 be e4 50 cc be
       -0.4252137 -0.8418721 -0.32747903 -0.39905465
000020 97 1b 43 3e 80 58 81 be 2b d5 f8 be 95 ff 11 bf
       0.19053493 -0.25262833 -0.48600134 -0.5703061
000030 83 d3 c8 bd a6 aa be be bb 6a db be 51 27 09 bf
       -0.09805968 -0.3723957 -0.42854866 -0.5357562
000040 0a cf 76 bc 7b f0 8d be 63 0b 4c bd 36 4d cb bd
       -0.01506401 -0.27722535 -0.049815547 -0.09926836
000050 a0 ca 17 3e 27 83 3c 3e 71 91 61 3e 86 f7 e8 bd
       0.14823389 0.18409406 0.22028138 -0.11375336
000060 77 0e de 3c 73 84 91 3e 84 01 13 be 3c 26 c2 bd
       0.027106507 0.28421363 -0.14356047 -0.09479949
000070 7e 2d 1f 3f c6 99 2e 3f 5f be cc 3e 8e bd 99 3e
       0.6217879 0.6820339 0.39988992 0.3002743
000080 6c 16 15 bd 9a 28 85 3b d7 ac bc be 6a de ef be
       -0.036398336 0.004063678 -0.36850616 -0.46849376
000090 25 11 d1 3e 1e 31 56 bd 2f 1b 18 bf d9 20 34 bf
       0.40833393 -0.052292936 -0.5941648 -0.7036262
0000a0 38 9d ce be 2f 30 08 bf e6 88 8f bf d0 a3 86 bf
       -0.40354323 -0.5319852 -1.1213653 -1.0518742
0000b0 1a 5c 7b be 2e 16 ca bd 74 8b b0 be eb 27 fb be
       -0.24546853 -0.09867512 -0.34481394 -0.49053892
0000c0 57 b6 c5 be 6f 4e 4e bf 3e 41 42 be 4e 5c d2 be
       -0.38615677 -0.8058843 -0.189702 -0.41086048
0000d0 f2 91 d6 be 27 5d e4 be 52 69 b9 3e d0 2a 0d 3f
       -0.41908222 -0.4460232 0.36213166 0.5514345
0000e0 81 76 de 3e 50 e5 53 3f 1d a2 20 bd 49 f0 a6 bd
       0.43449786 0.8277178 -0.039217103 -0.081512995
0000f0 02 1c 6a 3e 04 53 c7 3e 39 0e cb bc 22 81 ba 3d
       0.22862247 0.38930523 -0.024787055 0.091066614
000100 93 e1 06 3e 8d ed db 3e f7 cd b6 3e 45 22 c6 3e
       0.13171987 0.42954674 0.35704014 0.3869802
000110 53 c7 90 3e 1d a9 f6 3e 15 d6 8d be 56 f5 65 be
       0.28277072 0.48175898 -0.27702394 -0.2245687
000120 0d 56 8d 3e 10 13 e5 3d c0 2d e8 3d 1b 94 0b 3e
       0.27604714 0.111852765 0.11336851 0.13630717
000130 d7 a6 d0 3d c6 73 79 bd 02 84 8d bf 6d 19 b0 bf
       0.10188072 -0.060901426 -1.105591 -1.3757759
000140 c4 d3 03 be 93 76 b0 be 53 79 be be fd 61 67 be
       -0.12873751 -0.34465465 -0.37201938 -0.22595973
000150 24 da eb 3d bd 89 fc bd a3 45 2e 3f 2c ea 35 3f
       0.115162164 -0.12330959 0.6807501 0.7106044
000160 1e 81 69 bf db 41 59 bf bb bb 30 3e 24 ff 34 3e
       -0.9121264 -0.8486611 0.17259113 0.17675453
000170 ac b8 4f 3e bc f3 a1 3e a6 b4 95 be f9 68 01 bf
       0.2028529 0.31631267 -0.29239386 -0.505508
000180 7a b4 cd be 19 c3 3a bf e8 55 a3 bd f0 aa a6 be
       -0.40176755 -0.72953945 -0.0797537 -0.3255229
000190 27 f8 0d bf 9d 23 5b bf 3b 53 28 bf 2d 48 38 bf
       -0.55456775 -0.85601217 -0.65752 -0.7198513
0001a0 c9 69 40 3c 44 a2 7f be 51 2b f1 bc 95 13 25 be
       0.011743971 -0.24964243 -0.0294396 -0.16120751
0001b0 b4 76 cc 3e dd c1 0c 3f 9e 92 4f bf a3 5b 4c bf
       0.39934313 0.5498331 -0.81083095 -0.79827327
0001c0 bf 74 39 be 7f 19 45 bd 42 83 30 3f 95 55 8b 3f
       -0.18110941 -0.048120018 0.68950284 1.0885493
0001d0 06 a8 62 be e2 58 61 be 66 41 0f 3f ca 25 2a 3f
       -0.22134408 -0.22006562 0.55959165 0.6646391
0001e0 2c 2c 10 3e 50 27 00 be 57 7b 98 ba 1b 5b 93 3d
       0.1407935 -0.12514997 -0.0011633438 0.07195111
0001f0 94 cc 0a 3f e6 b0 52 3f b2 4c 73 bf 82 7f d8 bd
       0.5421841 0.82301176 -0.950389 -0.10571195
000200 d9 27 a2 3e ab e7 65 be 3a 1a 86 3d bb 22 fb bd
       0.31671026 -0.22451656 0.06547971 -0.12262484
000210 b3 06 1a be 35 75 86 ba c2 6d 0f bf b6 c2 17 bf
       -0.15041618 -0.0010258319 -0.5602685 -0.5928148
000220 fa 2e e0 3d 3c 56 1d be 3c 49 0b bf f9 90 a3 be
       0.1094646 -0.15364927 -0.5440862 -0.31946543
000230 c7 7c 5d 3f b1 1f 81 3f e5 f2 05 bf 75 da 25 bf
       0.8651852 1.0087796 -0.5232375 -0.64786464
000240 f7 40 ba be fe 06 8b be f7 49 19 3f 59 e6 7d 3f
       -0.3637769 -0.27153772 0.59878486 0.9917961
000250 c7 0e 1b 3f 68 15 06 3f e6 17 0b 3c 0b 95 ce 3d
       0.60569423 0.52376413 0.008489585 0.100870214
000260 4c c0 fa 3e 73 9a 09 3f 19 af 9d bf ba b6 56 bf
       0.48974836 0.53751296 -1.231906 -0.8387257
000270 bc 97 76 be a2 e8 a5 be ff fe 0d 3e 3c 6b c9 3e
       -0.2408132 -0.32404047 0.13866805 0.39339626
000280 09 87 54 3e c9 7f 87 be 1b ea 41 3e 64 96 86 3e
       0.20754637 -0.2646468 0.1893696 0.26286614
000290 dc 18 e0 be a3 c0 75 bd 7b 8c 41 be 21 c5 af 3e
       -0.43768966 -0.059998166 -0.18901245 0.34330085
0002a0 78 e6 07 bf 4e e3 e6 be 8a 4e d7 be 4c db d4 be
       -0.5308604 -0.45095295 -0.42052108 -0.4157356
0002b0 87 72 b7 be 7f ab 3a 3d 40 25 45 be c1 7d cd be
       -0.35829565 0.045573708 -0.19252491 -0.40135005
0002c0 98 f1 99 3e d2 f6 e1 3e 04 5c 0d be 6b 08 2c be
       0.30067134 0.4413362 -0.13804632 -0.16800086
0002d0 09 8e c5 3e 75 7b f1 3e ea eb b6 bc 7e bc 35 3b
       0.38584927 0.47164503 -0.02232929 0.0027730758
0002e0 5a d3 85 be a7 fe ab be e5 4b 18 bd 1d df 96 bd
       -0.2613781 -0.33592722 -0.037181754 -0.07366774
0002f0 cf 67 58 bc 79 df 29 be 95 03 ce bd 83 46 78 be
       -0.013208344 -0.16589154 -0.10059277 -0.24245648
000300 8d 64 d3 be d1 19 29 bf 47 bf 82 be fe 77 1d be
       -0.41287652 -0.6605502 -0.25536558 -0.15377805
000310 bc 91 a6 bd 52 73 a7 bd e6 65 94 3f f3 30 b5 3f
       -0.081332654 -0.081762925 1.1593597 1.4155563
000320 2f 64 8e 3e df 2f 01 3f b3 7b a6 3b 84 e0 46 be
       0.2781081 0.5046367 0.005080664 -0.19421583
000330 98 ba e8 be 59 1a 8e be d8 76 9e 3d 54 c7 03 3d
       -0.4545486 -0.27754477 0.077375114 0.032172516
000340 37 71 2e bd 05 26 b6 be e6 5e 28 bf 87 e1 51 bf
       -0.04258844 -0.35575882 -0.65769804 -0.8198475
000350 8f 24 93 bd 93 01 07 3e cd ed ff be 12 5a 26 be
       -0.071847074 0.13184194 -0.49986115 -0.16245297
000360 35 9e 0e be 5d 77 91 be 1a 0d 24 be 6a c7 00 bf
       -0.13927539 -0.2841138 -0.16020623 -0.5030428
000370 fc de c0 be 45 04 59 bf 68 e2 05 bf ae bb 8f be
       -0.37670124 -0.8477214 -0.52298594 -0.28072876
000380 81 b9 70 3d c6 95 8e 3e 52 03 e8 bc 29 0d 3f bd
       0.05877066 0.27848643 -0.028321896 -0.04664341
000390 31 23 41 3f 37 8d c9 3e 7b 5e 13 bd ad a6 59 bd
       0.7544432 0.3936555 -0.035978775 -0.05313747
0003a0 cc 7a d2 3d a4 d6 0c be fd c6 85 bf 25 4f 2b bf
       0.10277328 -0.13753754 -1.0451351 -0.6691764
0003b0 8e 66 9f 3d 63 63 2e be 3c bc 49 3f b5 95 9a 3f
       0.07783233 -0.170301 0.7880285 1.2076937
0003c0 dc b1 c6 be ac 5b 07 bf 90 32 96 3e 3a f9 9c 3e
       -0.3880757 -0.52874255 0.2933545 0.30658895
0003d0 6b 3b cd 3d a8 9d 84 3e 31 f2 5d be 25 17 1e be
       0.10021099 0.25901532 -0.2167442 -0.15438516
0003e0 81 e8 d9 be ff 0e f9 be b7 73 f0 3d 5b e6 13 3d
       -0.425602 -0.48644254 0.11740821 0.036108356
0003f0 06 e1 54 bd 6a 31 56 be 4c 34 b6 be de 98 c7 be
       -0.05197241 -0.20917287 -0.35586774 -0.38983816

encoder.weight_hh_l0 f4 [512, 128]
000000 26 19 1d 3f 28 65 1c be 9c 8f 53 bd 96 55 8a 3d
       0.613665 -0.15272963 -0.05165063 0.067546055
000010 3c 56 a6 bd 82 06 05 3e ce f0 59 3e cc d7 11 3c
       -0.08121917 0.12990764 0.21283266 0.008901548
000020 c1 d0 a9 3d 20 f5 5f 3e c4 b2 76 3e 22 d9 af be
       0.0829177 0.21870852 0.24091631 -0.34345347
000030 ad 3c ce be ee ff 3a 3e 3d 10 a3 be ce bd c0 3e
       -0.40280667 0.18261692 -0.31848326 0.3764481
000040 86 a2 63 bb fc e3 9c 3d 9d 93 78 be 43 c6 02 3e
       -0.0034734323 0.07660672 -0.2427506 0.12770943
000050 3a 15 f1 3c 2a f2 f4 3d ff 08 08 bf 82 4a 5c 3e
       0.029429067 0.11960252 -0.53138727 0.21512797
000060 83 09 8d bd 99 49 18 3d 78 0d 9f 3e 63 01 70 3e
       -0.0688658 0.037179563 0.31064963 0.23438029
000070 47 ee 9d be b4 fd 2a be 67 e9 53 be 74 d0 ca be
       -0.30845854 -0.16698343 -0.20694505 -0.39612162
000080 57 56 ab 3e 2d 5f 4c be 0c 2e c3 3d d5 d6 d5 bd
       0.3346431 -0.19958182 0.09530267 -0.104413666
000090 62 d9 4f bd 03 10 07 bf 5a ac db bd bd 91 ab 3d
       -0.05074442 -0.52758807 -0.10726233 0.08377407
0000a0 ab a6 e4 3e e4 fe a3 3e 2b 1d 3a be f1 76 6b 3d
       0.44658408 0.32030404 -0.18175189 0.05748648
0000b0 94 fe d1 bc 00 4e c8 3e 58 8b 1e 3e 0d 56 74 3e
       -0.025634088 0.3912201 0.15482843 0.23860951
0000c0 3e 59 1a bd 91 48 37 be 9f a4 8a be dd 19 07 bc
       -0.037682764 -0.17898776 -0.2707872 -0.008245912
0000d0 e3 d8 f9 bc 61 a1 82 3d d3 2d 0f 3d 09 8b 0b 3c
       -0.030498927 0.06378437 0.03495581 0.008517035
0000e0 6d ba b1 3c ba 6e 04 bc 69 97 d3 3e 6f 1b 20 3e
       0.02169534 -0.00808304 0.41326454 0.15635465
0000f0 f7 69 8a 3c b7 4e 8c 3e 73 86 32 3e 80 23 34 3e
       0.016896231 0.27403805 0.17434101 0.17591667
000100 17 e5 b8 3b 37 a0 a8 bc 08 c3 b7 be c4 02 23 be
       0.005642544 -0.020584209 -0.35890985 -0.15919024
000110 3d 64 66 be 13 c7 34 be 59 01 05 bf 84 8e 1a 3e
       -0.22499175 -0.17654066 -0.5195518 0.15093428
000120 09 c1 04 be 3b 0b 4b 3e ee 90 99 3e 71 6b 04 be
       -0.12964262 0.19828503 0.29993385 -0.1293161
000130 23 4f fc be 86 45 81 3c 3f f2 4b 3e f9 78 0a 3e
       -0.49279127 0.015780222 0.19916628 0.1352271
000140 60 20 17 3e e4 5c 54 3d dd d0 76 bd 23 88 c0 3d
       0.14758444 0.0518464 -0.06025778 0.09400966
000150 4b 36 40 3e 8e df 42 3d 77 8d 02 bd b6 37 92 3d
       0.18770711 0.04757648 -0.031873193 0.07139532
000160 07 f1 fb 3d cc 51 6d 3e 22 cc fb 3d 9c 52 05 3e
       0.12301832 0.23175734 0.122947946 0.13019794
000170 e3 07 1c 3d bf 53 b8 3d 5f a4 0d 3e 30 f7 86 be
       0.03809346 0.09000348 0.13832234 -0.26360464
000180 ce 16 39 bd ee ee 2c bc 27 aa a6 3e 14 f5 46 3d
       -0.045187764 -0.010555012 0.3255169 0.04857357
000190 4f 02 9e 3e 50 dc 19 bc 06 99 02 3e 5c 54 28 be
       0.30861136 -0.0093909055 0.12753686 -0.1643843
0001a0 af 71 05 3e c5 bd 37 be 71 cf b9 3d 75 80 8d 3d
       0.13031648 -0.17943485 0.090727694 0.06909267
0001b0 2a e7 4a be 04 40 5d 3d f5 b7 70 3d d7 c8 79 be
       -0.19814745 0.05401613 0.058769185 -0.2439302
0001c0 57 a7 0c be f3 56 7e bd 36 03 43 3e c3 1a d3 bd
       -0.1373571 -0.06209464 0.19044194 -0.10307839
0001d0 54 1d cc bd 0e 4f 3c be 28 c5 ac 3d 86 b0 1e 3d
       -0.099665314 -0.18389532 0.08436042 0.038742565
0001e0 f0 26 68 3e df fd a6 be 8d a8 14 bd bd fc 1a bc
       0.22671103 -0.32615563 -0.036293555 -0.009459672
0001f0 6e 6d dd bc dd 87 19 3e 73 8c 2d bc ac fb 25 be
       -0.02702972 0.14993234 -0.010592568 -0.16209286
000200 81 fd cd bc 86 c5 f3 bc ce 8a 3d 3e 86 dd ab 3a
       -0.025145294 -0.029757272 0.18509981 0.0013112284
000210 e3 62 65 3e 3e 53 0a be 01 6e 27 be a7 6c 9d 3d
       0.22401004 -0.13508317 -0.16350557 0.076867394
000220 68 bc 82 be 40 aa 02 3d 97 ec 13 be 3c 02 43 be
       -0.25534368 0.031900644 -0.1444572 -0.19043821
000230 24 ce 87 bb fb 0d 29 3c 3c 8f 81 3e 72 e7 21 3e
       -0.004144447 0.010318275 0.25304592 0.15810946
000240 d3 0d 13 bf cb e1 8d bd 29 90 9a 3d 9f 18 0d be
       -0.5744297 -0.06927832 0.075470276 -0.13778923
000250 de 76 93 3e 7f b3 60 bd 28 d0 e2 3c 01 7f a6 bd
       0.28801626 -0.05485868 0.027687147 -0.08129693
000260 2e b8 09 bd 35 f4 5e bd 73 11 83 3e eb 17 e3 3d
       -0.033622913 -0.054432113 0.2559925 0.11088546
000270 8e a5 8a 3e de 80 80 bd 79 d7 be 3d 0c 0d 47 bd
       0.27079433 -0.062745795 0.09318442 -0.048596427
000280 2c 55 03 3e 49 5d 66 3d 7c ec 7d 3e 2f c8 f3 3d
       0.12825459 0.056241307 0.24797243 0.11903416
000290 66 1b ea 3d 39 1d ed 3d 08 50 f7 3d 1a 00 84 bd
       0.11431007 0.115778394 0.120758116 -0.06445332
0002a0 cf 8c 03 3f 0a 84 67 3d c1 85 e3 bd 27 77 71 3d
       0.5138673 0.056522407 -0.11109496 0.058951523
0002b0 a8 3a 89 be 8d 62 6f be 3e 75 c2 3d 67 6a 1a be
       -0.26802564 -0.23377438 0.094950184 -0.15079652
0002c0 74 24 0d 3d 1a dc 2f bd cf 3c e4 bd 00 39 12 3e
       0.034458593 -0.042934515 -0.11144411 0.14279556
0002d0 51 67 e6 bd 70 90 a5 3d 5e 15 87 be 0e 86 4a bd
       -0.11250175 0.0808419 -0.2638349 -0.04944425
0002e0 0b ac b3 be 92 75 ab 3e ec 11 94 3c 8d 95 8e 3d
       -0.35092196 0.33488137 0.018074952 0.06962118
0002f0 1b c7 1d 3e e2 a3 28 be fb 72 42 be c7 4c 06 be
       0.15407984 -0.16468766 -0.18989174 -0.13115226
000300 78 e7 aa bd 7c a8 4c 3e f5 e2 a8 bd 0c ad c2 bd
       -0.083449304 0.19986147 -0.082464136 -0.09505662
000310 78 d5 7b 3e 95 91 83 3e eb e8 4f 3d 36 1d 66 3d
       0.2459315 0.25697008 0.050759237 0.0561802
000320 af d7 8e 3d a4 2b e3 3c 7a 96 e6 bd da 71 d0 bd
       0.06974732 0.02773077 -0.1125917 -0.101779655
000330 b7 b1 cf 3d 78 d4 9c bd ae 04 4c be ae 1f 0c bd
       0.10141318 -0.07657713 -0.1992366 -0.0342099
000340 f5 bf d2 bc fd e6 dc bd e6 08 8c be 58 40 ab 3e
       -0.025726298 -0.10786245 -0.2735054 0.33447528
000350 42 a3 9c bd fe bf 7d bd 4b e9 61 bd 58 26 6a 3d
       -0.076483265 -0.061950676 -0.055154126 0.057165474
000360 12 0b c3 3e 7c 4b 96 bd 08 13 68 bd 6f 0c 70 3c
       0.38094383 -0.07338616 -0.056658775 0.014651402
000370 7b 53 1b be 9e 76 c5 3d a4 f3 bf bd a0 2a e4 bc
       -0.15168564 0.09641765 -0.09372643 -0.027852356
000380 3a 1c 28 bc de 0b 92 bd d6 3c ae 3d 53 00 a1 be
       -0.010260636 -0.0713117 0.08507697 -0.3144556
000390 65 4f bd bd 54 ff aa 3e 81 1a ad 3d 96 1b 7e be
       -0.09243659 0.33397925 0.08452321 -0.2481521
0003a0 e6 de bc 3c 64 f2 10 3e 73 6a 38 3e 1d a5 c6 3e
       0.023055505 0.14154965 0.18009357 0.38797846
0003b0 90 c5 f9 3c 35 64 16 3e 96 36 38 3e 23 ad 11 bc
       0.030489713 0.14686663 0.17989573 -0.008891377
0003c0 d7 0f b7 3d eb fe 8d bc 45 29 62 3e cb c9 8e 3d
       0.08938568 -0.017333468 0.22086056 0.06972083
0003d0 c8 4d d2 bd 16 03 01 3e 98 53 2c be e8 f3 0a bd
       -0.10268742 0.12598833 -0.16828763 -0.033924013
0003e0 24 a5 a5 3e c6 25 2d 3e 5d dc 1b 3e 60 56 73 b9
       0.32352555 0.1690894 0.1522078 -0.00023206463
0003f0 7e 6b aa 3d 5e 43 6f be 9e 82 63 3e 10 c6 10 be
       0.08321284 -0.23365542 0.22217795 -0.14138055

encoder.bias_ih_l0 f4 [512]
000000 1f 3f b2 3e 94 36 3a bf be ea 6f bf 56 76 c7 be
       0.34813783 -0.7273953 -0.93717563 -0.3895747
000010 6d 9c 79 be 45 5d 25 bf b2 a1 a5 be c8 60 ff be
       -0.24376078 -0.64595443 -0.32349926 -0.49878526
000020 d3 07 07 be a9 a3 95 bc b5 1b 43 bd 51 ab 58 bd
       -0.13186578 -0.018266516 -0.047633845 -0.052897755
000030 2b 7e 7c 3e 72 f5 0e be 4a eb 32 3f 8c 22 19 3e
       0.24657504 -0.13960817 0.6989027 0.14954585
000040 9f 0d 9e 3c c3 d3 95 be fb 85 54 3e c9 37 2d bf
       0.019293604 -0.29263124 0.20754234 -0.67663246
000050 8b c2 2d bf f4 08 45 bf 0b ca da bc 49 c8 c3 be
       -0.67874974 -0.76966786 -0.02670767 -0.38238743
000060 51 ed 2f bf d0 63 a1 be a0 e7 de be 8e 7f 1c 3f
       -0.6872149 -0.31521463 -0.4353609 0.61132133
000070 46 68 55 3f e5 cb 01 bf 9e b7 44 3e d7 fd 84 3c
       0.83362234 -0.50701743 0.1921067 0.016234322
000080 de d3 be 3e e0 06 8c 3e 90 d5 83 3e 00 00 cb be
       0.37271017 0.27348995 0.25748873 -0.39648438
000090 87 f7 0a be 3b 0b 5e 3e e4 a2 0a bd 44 be bc bf
       -0.13570987 0.21683972 -0.03384675 -1.4745564
0000a0 69 12 c9 be de 63 20 be e0 2f 51 be b3 2f 2b 3f
       -0.39271858 -0.15663096 -0.20428419 0.6686966
0000b0 91 96 81 bf 94 f9 52 3e d0 96 5d 3e 78 14 7a be
       -1.0124074 0.20603019 0.21639562 -0.2442187
0000c0 7f f5 37 bf de 52 fc be d0 55 6d bf 92 fa 2f bf
       -0.7185897 -0.49281973 -0.92709064 -0.68741715
0000d0 29 fa b6 be 6b 28 9b be 95 7c 00 3f de 0e 5e bf
       -0.35737732 -0.30304274 0.501901 -0.86741436
0000e0 d8 0f bf bd fa 42 7b 3f 35 1b 03 be c4 3d 59 3f
       -0.09329194 0.98149073 -0.12803347 0.8485987
0000f0 e4 88 2b bc 90 71 2f 3c 7a 2e 6a 3f dd 83 c3 be
       -0.010469649 0.010708228 0.9147717 -0.3818654
000100 74 68 e4 3d 47 3d 95 3d 7d 43 a5 bc 27 38 40 bf
       0.11152735 0.07287078 -0.020173782 -0.7508568
000110 10 fc 9d 3d 9d c3 91 be 6f b7 8a 3f 5b d9 49 bf
       0.07714093 -0.28469554 1.083723 -0.78847283
000120 b6 a8 e2 be 5f a6 5f 3f 44 2a 29 3f a8 f6 d9 3d
       -0.4426934 0.8736324 0.6608012 0.10642749
000130 35 c9 0b 3f 04 82 0e bf 11 42 e9 be f1 f6 ca 3e
       0.5460389 -0.5566714 -0.45558217 0.39641526
000140 7c f2 a1 be 9d 65 77 3e 08 4e f9 be e1 bd 8a 3d
       -0.31630313 0.24159856 -0.48692346 0.06774498
000150 f7 44 dd be 95 4f 58 be 6b e3 a4 3a 00 6c 02 bf
       -0.43216679 -0.21124108 0.0012579983 -0.50946045
000160 93 9f 1a 3f 37 37 27 be 44 f0 d1 3e 3a 7e e0 be
       0.6039974 -0.16329657 0.4100362 -0.43846303
000170 05 dc 7f be c3 ec 9b bd 33 ea 71 be 36 23 90 be
       -0.24986275 -0.07613518 -0.23624496 -0.28151864
000180 c7 ed f3 be 6f 16 0b be 7f 35 87 bd 76 44 cd 3f
       -0.47642347 -0.13582776 -0.066020004 1.6036518
000190 70 22 36 3e cd 84 81 be ef 45 af be 05 51 a6 3e
       0.17786574 -0.2529663 -0.34233043 0.32483688
0001a0 f5 3d b2 be a0 fe 8f bf eb d6 db 3d af 67 cc be
       -0.34812894 -1.124958 0.10734352 -0.39922854
0001b0 ea b8 59 be e6 ad bb be 0a e0 31 bf 1b bc 92 be
       -0.21261945 -0.3665611 -0.6948248 -0.28659138
0001c0 9c 1d b0 3e 52 0c a7 be 97 8b 87 3e 23 67 18 bd
       0.3439759 -0.32626587 0.26473686 -0.037207734
0001d0 7e af 37 be ca 1e 97 bf 00 ce 0d bd c2 b4 91 3f
       -0.17938039 -1.1806271 -0.034620285 1.1383288
0001e0 23 ad 48 bd 7a b6 ed 3e 69 a8 b6 bd 2d dc b0 bd
       -0.04899324 0.4642828 -0.089188404 -0.08635745
0001f0 9e f1 de be 85 f4 a0 3d 6c 89 eb bd 88 7b b4 be
       -0.43543714 0.078591384 -0.115008205 -0.35250497
000200 14 a8 d7 be 7d fc 6e be af 2b 6c bf bf 2e 56 bd
       -0.4212042 -0.23338504 -0.92254156 -0.052290674
000210 3e c1 6e bd 81 36 61 be d7 9d 0c 3e c3 6d 32 bf
       -0.05828976 -0.21993448 0.13732086 -0.69698733
000220 f8 41 14 bf 2c a2 85 3e 17 7c b7 be 92 04 27 be
       -0.5791316 0.2610029 -0.3583686 -0.16310337
000230 f0 c8 12 bf ed 48 89 3e 1e 0c 0a bf 33 25 97 be
       -0.57337856 0.2681345 -0.5392474 -0.29520568
000240 9b 30 72 be ab 6b 32 bc 81 3c 95 be b3 d5 4e bf
       -0.23651354 -0.010889928 -0.29147723 -0.8079483
000250 6e a9 03 bf d8 43 14 bf 71 d8 bd 3e 30 5e 19 bf
       -0.51430404 -0.5791602 0.37079194 -0.59909344
000260 03 22 3d be fd 48 34 3e 5c 40 15 be aa 04 ca be
       -0.18470006 0.17605968 -0.14575332 -0.39456683
000270 67 25 20 bf 9f 9b 43 be d8 a1 2a bf 58 15 22 bf
       -0.6255707 -0.19102333 -0.66653204 -0.6331382
000280 60 d1 36 be ab 28 ec be d4 e8 22 3e 33 fa 8b 3e
       -0.17853308 -0.46124777 0.1590913 0.27339324
000290 d8 62 87 be 7d 8b d1 be d3 57 c1 be 19 71 22 bf
       -0.264426 -0.40926734 -0.37762317 -0.63453823
0002a0 e0 fd 8e 3e 1c ea 21 3e 9b 35 68 3d 08 b9 9f be
       0.27928066 0.15811962 0.056691747 -0.31195855
0002b0 ed 63 03 bf 9c 0f 68 3e 27 79 82 3e 2b e5 b5 3d
       -0.5132435 0.22662205 0.25483057 0.08881601
0002c0 e0 75 ee be 73 6e 02 bd 17 50 0f bf 01 e8 bc be
       -0.46574306 -0.031843614 -0.5598158 -0.36895755
0002d0 0d 73 8f 3d 52 1f 91 be bf d9 06 be e3 40 51 bf
       0.07004366 -0.28344208 -0.13169001 -0.81739634
0002e0 43 b9 7b 3e 66 c2 99 be 98 8e 2b bf 78 ff bd be
       0.2458239 -0.30031127 -0.67014456 -0.3710897
0002f0 65 0c 49 be 20 14 93 be eb 8d a3 be dc 39 60 be
       -0.19633634 -0.28726292 -0.31944212 -0.21897072
000300 a7 d1 29 3c 77 f7 3c bf d6 41 94 3e 7f c4 04 bf
       0.010364926 -0.738151 0.2895648 -0.5186233
000310 c3 60 38 be 5e 24 9f 3d ac d5 1f bf a4 75 00 bf
       -0.18005662 0.07770608 -0.6243541 -0.50179505
000320 bd 62 8c be 58 f2 4c be c4 1e aa be 63 f5 9d be
       -0.2741908 -0.20014322 -0.33226597 -0.30851278
000330 4a 50 fe be 7d ba 96 bd 82 53 d2 be e3 42 d2 be
       -0.4967063 -0.073597886 -0.41079336 -0.41066656
000340 e1 25 1c bd 08 02 37 be f1 2b bc bd 54 33 cf be
       -0.03812206 -0.17871869 -0.09188069 -0.40468848
000350 e9 3a 1b bf 8c 03 41 bf 04 46 33 be 08 03 1e bf
       -0.60636765 -0.7539604 -0.17507178 -0.61723375
000360 b1 3a 34 be 26 e8 df bd 42 cd 8f be bd 27 d6 3c
       -0.17600514 -0.10932951 -0.28086287 0.026141996
000370 dd cc 2c 3e b7 53 a4 be 10 99 e1 be 56 4f 1e 3e
       0.16875024 -0.3209512 -0.4406209 0.15459952
000380 7f f4 16 bc 4f 5d b9 3d 08 35 69 3d 75 d5 23 bf
       -0.009213566 0.09051 0.05693534 -0.63997585
000390 02 9f 42 be b7 66 bd be 9c c4 38 bf 30 bc f6 be
       -0.19005969 -0.36992428 -0.72175 -0.4819045
0003a0 65 8c 34 bf 32 0e fe be f6 d5 b2 be 25 9d d8 bd
       -0.70526725 -0.49620205 -0.34928864 -0.10576848
0003b0 91 01 26 bf e1 04 8c 3d a2 05 2d bf 34 fe 97 be
       -0.6484614 0.06836868 -0.6758672 -0.2968613
0003c0 35 3b 30 bf 8a ac cf be 64 63 38 be d9 b1 69 be
       -0.6884034 -0.40561324 -0.18006665 -0.2282175
0003d0 33 f8 a0 be 57 eb fb be 9c 8d b3 3e c1 96 34 be
       -0.3143936 -0.49202988 0.35068977 -0.17635633
0003e0 e9 6f ec 3e f2 60 a1 be ec 30 13 be 77 b0 a2 3e
       0.4617913 -0.31519276 -0.14374131 0.31775257
0003f0 6f 40 34 3c 32 10 74 be be 1b 12 3f aa b7 e1 3d
       0.01100169 -0.23834303 0.5707358 0.11021359

encoder.bias_hh_l0 f4 [512]
000000 a5 e7 d0 3e 67 b1 3b bf e6 28 6c bf aa 7c 9c be
       0.4080173 -0.7331757 -0.92249906 -0.3056386
000010 87 0f 43 be ed b5 34 bf 4a e6 5e be e3 23 10 bf
       -0.19048892 -0.70590097 -0.21767536 -0.5630476
000020 0e a5 b6 bd 62 45 24 be 62 86 66 bd d9 71 b2 bd
       -0.089182004 -0.16042092 -0.0562805 -0.08713121
000030 a4 d6 63 3e ea 2d 1f be d6 ef 3c 3f b7 ed c6 3d
       0.22249848 -0.15544859 0.7380346 0.09713309
000040 a9 c0 64 bd 30 22 b0 be bb 59 1e 3e b6 49 47 bf
       -0.055847798 -0.34401083 0.15463917 -0.7784685
000050 d3 12 04 bf c7 0d 3d bf 6e 2e 17 3e 95 69 b2 be
       -0.51591223 -0.7384915 0.14763805 -0.34846178
000060 2f 41 50 bf 2f 07 bd be 00 8c d3 be a5 e4 01 3f
       -0.8134946 -0.36919543 -0.4131775 0.5073951
000070 e5 27 33 3f 6e c0 ff be db 01 8d 3e d2 11 b6 bd
       0.6998275 -0.499515 0.27540478 -0.08890118
000080 06 88 ca 3e 48 f9 a7 3e be d1 ab 3e 60 25 bc be
       0.39556903 0.32807374 0.33558458 -0.36747265
000090 01 f0 c9 bd 22 c1 2c 3e b0 15 50 bc ae f7 c2 bf
       -0.0986023 0.1687055 -0.012700483 -1.5231836
0000a0 4a 76 7a be db 06 5b be 76 84 ca bd 93 12 2b 3f
       -0.24459186 -0.21389334 -0.09888546 0.66825217
0000b0 51 82 89 bf 3d 2d 2d 3e cc 42 b5 3e 18 56 13 be
       -1.0742894 0.16911788 0.35402524 -0.14388311
0000c0 2d 15 35 bf fd 6e 04 bf 52 73 6e bf 09 11 45 bf
       -0.70735437 -0.51731855 -0.93144715 -0.7697912
0000d0 e0 1e 8d be 16 18 9b be 8a be 09 3f b5 f2 56 bf
       -0.27562618 -0.30291814 0.53806365 -0.8396409
0000e0 f3 ee 30 bd b3 59 8c 3f 2b 80 7b be 5a 9a 4c 3f
       -0.04319663 1.0964874 -0.24560611 0.7992302
0000f0 f3 71 2e 3d 69 b0 82 3d 0a 06 65 3f 44 fd bf be
       0.04258914 0.06381304 0.8946234 -0.37497914
000100 4e 98 43 3e 87 62 79 3c 64 d5 d3 b8 5b e1 47 bf
       0.19101068 0.015221245 -0.00010101011 -0.7807824
000110 ec fe d0 3c e3 02 a9 be 16 14 89 3f 65 ce 46 bf
       0.025512181 -0.33010015 1.0709255 -0.77658683
000120 33 6e ea be 9c 1e 75 3f 13 92 36 3f 28 51 c6 3d
       -0.457872 0.9574983 0.7131664 0.09683448
000130 65 b3 14 3f 38 aa 27 bf 1d 52 ff be a5 b9 8e 3e
       0.58086234 -0.6549411 -0.49867335 0.2787601
000140 49 fa 6f be 6b a9 7b 3e 4b 27 c9 be 07 6c b7 3d
       -0.2343532 0.24576347 -0.3928779 0.089561515
000150 ce a1 fa be c4 fa 9f be 9d 34 60 bd 58 eb e8 be
       -0.48951572 -0.31246006 -0.054737676 -0.45492053
000160 19 29 20 3f 2f 7d 09 be 77 06 06 3f 71 d4 b9 be
       0.6256271 -0.1342666 0.52353615 -0.36294892
000170 2e 7b 3d be 81 55 11 be 97 9b 20 be 4c 7b 84 be
       -0.1850402 -0.14192773 -0.15684353 -0.25875318
000180 cc 8b 0b bf 1b f0 07 bc 7d 29 78 bd 17 be cc 3f
       -0.5451019 -0.008296992 -0.06058644 1.5995511
000190 a0 45 18 3e 39 81 05 be 01 54 e0 be 35 e0 37 3e
       0.1487031 -0.13037576 -0.4381409 0.17956622
0001a0 20 b9 e1 be 93 a2 7a bf 46 e5 9b 3d 39 6f 9b be
       -0.44086552 -0.9790432 0.0761209 -0.30358294
0001b0 76 a1 90 be 4e f1 a2 be 0c 24 16 bf 54 5e ae be
       -0.28248185 -0.31824726 -0.58648753 -0.34056342
0001c0 02 7d ac 3e 82 95 a3 be 65 dc 99 3e db a2 b2 b8
       0.33689123 -0.31950003 0.3005096 -8.5180356e-05
0001d0 af 5e 91 bd 21 c5 95 bf ed 6d 00 bd 97 65 90 3f
       -0.070981376 -1.1700784 -0.031354833 1.1281003
0001e0 42 04 1c bd 5c 4d dc 3e 9e f5 ab bd 9a ea 1e be
       -0.038089998 0.4302777 -0.08396457 -0.15519181
0001f0 b3 07 00 bf 9f fb 1d 3d c2 84 d6 ba b1 0e b6 be
       -0.5001175 0.038570043 -0.0016366469 -0.35558084
000200 66 96 d8 be 9f e1 91 be b4 ea 65 bf 4a a9 97 bd
       -0.42302245 -0.28492448 -0.89811254 -0.07405336
000210 de 94 5e be bb dd c0 be 93 fb d9 3d b5 ce 30 bf
       -0.21736476 -0.37669167 0.10643687 -0.6906541
000220 ff e7 03 bf f8 84 11 3e 95 ae dc be b5 2c 75 be
       -0.5152587 0.1421088 -0.43101946 -0.23942836
000230 7a 80 21 bf b5 52 4d 3e ba b7 f2 be b5 76 93 be
       -0.63086665 0.20051081 -0.47405797 -0.28801504
000240 81 37 67 be c8 05 41 3d 0b 54 b3 be f4 87 59 bf
       -0.22579767 0.047124654 -0.35025057 -0.84973073
000250 ba f0 1a bf 70 22 26 bf 01 b3 e2 3e 8a 94 31 bf
       -0.6052357 -0.648963 0.44277194 -0.6936728
000260 fa 88 4b be 93 2c 0e 3d 74 1d 95 bd cb 7b 82 be
       -0.19876471 0.034710478 -0.07281008 -0.25485072
000270 0d ee 07 bf 7d fa ab bd 3d 91 42 bf 87 74 2c bf
       -0.5309761 -0.08397386 -0.76002866 -0.67365307
000280 9b fd 20 be 05 94 f4 be b7 1f ce 3d 9b 85 51 3e
       -0.15721743 -0.4776918 0.10064643 0.20461123
000290 ab fe 5c be 6c 4b 06 bf e5 9a 08 bf 12 1a 29 bf
       -0.21581523 -0.52458835 -0.5336135 -0.66055405
0002a0 cb 54 99 3e 57 b0 91 3e 59 2a 6f bd 03 18 a6 be
       0.29947504 0.2845485 -0.058389995 -0.32440194
0002b0 fd fa d2 be 40 30 6c 3e 27 54 7e 3e 89 30 5b 3c
       -0.41207114 0.23065281 0.24836789 0.013378271
0002c0 53 17 cb be 5b f0 42 bd 42 ed 32 bf 00 23 96 be
       -0.39666232 -0.047592502 -0.69893277 -0.29323578
0002d0 e0 94 b2 3d 70 bc 95 be 82 c8 31 be ce b3 2d bf
       0.08719802 -0.2924533 -0.17361644 -0.67852485
0002e0 85 4a 92 3e 50 68 a9 be 7e ef 29 bf ab b3 95 be
       0.2857248 -0.33087397 -0.6638106 -0.29238638
0002f0 fd 71 d3 bd 66 60 9f be 08 fd 63 be ad 9e 8f be
       -0.10324476 -0.31128234 -0.22264493 -0.28050748
000300 45 1f 89 bc 7c f8 38 bf ec 57 87 3e c9 8f f1 be
       -0.016738543 -0.7225416 0.26434267 -0.47180012
000310 4f a3 a0 be 5c ca 83 3d 03 4e 42 bf f4 c4 ed be
       -0.31374595 0.06435081 -0.75900286 -0.46439326
000320 8a 73 5d be 41 1f ec bd 6e 2e aa be 43 97 98 be
       -0.21626106 -0.11529399 -0.33238548 -0.29802904
000330 9f 39 f8 be 1b 5a 59 be d5 2d 06 bf 1c 04 0b bf
       -0.4848146 -0.21225779 -0.52413684 -0.54303145
000340 c1 1c d4 3d 09 22 76 be fa d0 33 be 89 ae f3 be
       0.10357047 -0.24036421 -0.17560187 -0.47594097
000350 13 5c 26 bf 8b eb 39 bf ac 67 56 be b8 66 37 bf
       -0.64984244 -0.72625035 -0.20937985 -0.7164111
000360 0f 6e 96 be 3d 64 09 be d9 22 78 be 8a 5e 50 bd
       -0.29380843 -0.13417144 -0.24232043 -0.05087141
000370 97 97 3b 3e 83 39 5b be f6 2d c1 be 69 29 79 3d
       0.18319546 -0.21408658 -0.37730378 0.060830507
000380 6f 0d cc bc 1c 97 d7 3d da 47 27 3e 6f 95 32 bf
       -0.02490875 0.10526869 0.16336003 -0.6975927
000390 be 81 8e be d0 d9 90 be 14 f3 2e bf 5a 4e 04 bf
       -0.2783336 -0.28291178 -0.6833966 -0.51682055
0003a0 de 03 20 bf 32 42 18 bf 3e c7 45 be 83 8e 22 38
       -0.625059 -0.59476006 -0.19314286 3.8756534e-05
0003b0 f6 c4 1e bf 0e f4 ac 3b f8 53 1f bf 91 7a 99 be
       -0.6201929 0.005278117 -0.622375 -0.29976323
0003c0 35 2f 2d bf 14 51 eb be 4d 1a 7c be d8 2e 46 be
       -0.6765016 -0.45960295 -0.24619408 -0.19353807
0003d0 c5 f5 8b be 4a e5 03 bf 9a 77 c0 3e df 90 8e be
       -0.27335945 -0.5152174 0.3759125 -0.27844903
0003e0 75 17 d2 3e 81 7e 81 be b4 d8 33 be 66 e4 4d 3e
       0.4103352 -0.25291827 -0.17563134 0.20106658
0003f0 14 28 3f 3d 0c f1 b1 be a2 7d 02 3f 87 9d 19 3e
       0.04666908 -0.34754217 0.5097295 0.15001498

decoder.weight_ih_l0 f4 [512, 128]
000000 a0 a6 ac be b7 c1 66 be 19 33 97 bc 02 ea 65 be
       -0.33720875 -0.22534834 -0.018456982 -0.22452548
000010 06 98 24 bf 86 34 47 3e 04 34 57 3e 20 8d 3c 3e
       -0.6429447 0.1945363 0.21015936 0.1841321
000020 a5 3a 9d 3e 0b 8b d5 3d 86 51 66 3e 6b 6e c0 3d
       0.30708805 0.10426911 0.22492036 0.093960606
000030 ec 26 9c bf 81 d2 fa be 02 28 47 bf 9f 22 20 3e
       -1.2199378 -0.48988727 -0.7779542 0.15638207
000040 2b 8c 45 bd af 0f c1 bc 14 c9 a6 be ea e8 39 3e
       -0.048229378 -0.023567049 -0.32575285 0.18155256
000050 62 fa 94 be b2 bc 6d 3e 5d 2c 14 bb 6f 8b da be
       -0.29097277 0.23216513 -0.002260945 -0.42684504
000060 9a 03 72 be a5 4e 0b 3f 41 56 0a 3f c6 86 e0 be
       -0.23634186 0.5441688 0.54037863 -0.43852824
000070 2c 41 e5 3e 56 67 df 3a c2 0f f5 3d 74 89 2f 3d
       0.44776285 0.0017044346 0.11965896 0.042855695
000080 4a 91 cd bd 1c d3 26 bf 0f d4 a6 3d 3b aa d1 bd
       -0.10037477 -0.6516588 0.08145916 -0.10237547
000090 6f 37 1c 3e a8 48 8e 3e 06 75 de be ce f9 8f bc
       0.15255521 0.27789807 -0.43448657 -0.01757517
0000a0 30 fa bb bd 1d ea fa be 13 b9 05 bf 68 6d aa be
       -0.09178579 -0.4900674 -0.52235526 -0.33286595
0000b0 d1 34 8d 3d bd e6 5e be 95 6e 7d 3f e2 95 01 bf
       0.068948396 -0.21767707 0.9899686 -0.5061933
0000c0 a4 7b 6e 3e 50 99 fc 3e f6 23 0e 3d 0a c9 3a be
       0.23289353 0.49335718 0.034702264 -0.18240753
0000d0 8d 99 44 bf 53 f1 d2 bd 4f ba 29 3f f7 78 35 be
       -0.767968 -0.10299935 0.6629991 -0.17721926
0000e0 4e 3b f5 3d b7 14 cb be 07 7f 53 bd 4a 4e 08 bf
       0.11974202 -0.39664242 -0.051634815 -0.5324446
0000f0 40 e4 10 be a1 ef 6a 3d c8 e4 4e 3f 6d 83 2a be
       -0.1414957 0.057357434 0.8081784 -0.16651697
000100 84 f9 c4 3e 9c 7e bf 3e a3 07 86 be 0d 26 21 3a
       0.38471615 0.37401283 -0.261777 0.00061473326
000110 08 4f 07 bf e5 98 3a 3d 90 a0 d6 bf ca cc d5 3e
       -0.5285497 0.045555968 -1.676775 0.41757804
000120 31 6b 7a 3d f3 3f dd be 19 88 2e 3f f3 49 aa 3e
       0.061137382 -0.43212852 0.6817642 0.33259544
000130 8c e6 6c 3e 4b 0c db 3c ef 09 2a bd ab 4d ee be
       0.23134822 0.02673926 -0.04151338 -0.4654363
000140 e3 54 14 3e 34 d6 f3 3d 13 fe 05 3e 07 26 aa 3e
       0.14485507 0.119060904 0.13085203 0.33232138
000150 61 ca 0e bd ae 9e 4e 3e 44 19 e0 bc a6 48 f2 3c
       -0.034860972 0.20177719 -0.027355798 0.029575657
000160 49 28 64 be ca 05 67 3e 0e b5 80 3e d5 cb 0d be
       -0.22280993 0.22560802 0.25138134 -0.13847287
000170 c1 68 01 3f f9 2e d4 be 07 aa 02 be dc a4 08 3e
       0.50550467 -0.41442087 -0.12760173 0.13344139
000180 ed 2b 76 3e 9b 71 16 be d4 85 ba 3e 97 82 47 bf
       0.24040194 -0.14691775 0.36430228 -0.7793364
000190 54 b7 6a 3e da 77 da be 9f a0 9d 3c d9 99 84 bd
       0.22921497 -0.42669564 0.01924163 -0.064746566
0001a0 99 a4 b4 3d 32 27 04 be f5 19 87 3d b1 2d f9 be
       0.08820457 -0.12905577 0.06596748 -0.48667672
0001b0 32 67 dd 3d ee 75 2a 3f aa e6 41 be 98 a8 9f be
       0.108106986 0.66586196 -0.18935648 -0.31183314
0001c0 54 7d a3 be 1d ab b4 be c4 ee 42 be d3 c7 41 3e
       -0.31931555 -0.352868 -0.19036394 0.18923883
0001d0 c2 a3 cd 3d 82 c8 29 be 74 cf 94 be 0c 02 9a be
       0.10041 -0.16580394 -0.29064524 -0.30079687
0001e0 94 aa 96 3d 8a 3c 63 be 5e 40 be 3e 0c 7a d9 3e
       0.07356754 -0.22191063 0.37158483 0.42475927
0001f0 5d 28 ce be 8b 2e da bd 44 57 8c 3e e9 8d ce 3d
       -0.4026517 -0.106534086 0.27410328 0.10085661
000200 fc 14 e1 3d 20 d8 ff bd 13 fe 0e bc 8c 6b 4f bd
       0.109903306 -0.124923944 -0.008727568 -0.050639674
000210 57 db 9e 3d e2 74 bf 3d 5b 44 8d 3d 95 34 0b be
       0.077566795 0.093484655 0.068978034 -0.13594277
000220 98 c8 76 3c 5c a8 13 be e2 73 64 3e e8 39 8b 3d
       0.015062474 -0.14419693 0.22309831 0.06798154
000230 5c 1b 42 3d 73 5f 9c be 0b 86 df bc 7e e5 50 be
       0.047389373 -0.30541572 -0.027285596 -0.20400044
000240 c5 b4 99 3d 31 07 0e 3e b0 35 19 3e 0b 6b fb 3c
       0.07505182 0.13869931 0.14961886 0.03069069
000250 6b d7 fc bd cf c0 dc bd 93 a2 b9 3d b9 2e a2 3c
       -0.12345775 -0.10778963 0.09064212 0.01979767
000260 ef cb 41 3c 17 ce 27 bc 3b 1d d9 3d 7a 09 4e 3e
       0.011828407 -0.010242007 0.106012784 0.20120803
000270 d2 84 0a bf d5 04 41 3e 2d d2 7d be 93 c6 43 be
       -0.5410892 0.188495 -0.24787207 -0.19118719
000280 b9 6d 91 3d e8 f6 3f 3d 78 0d 58 be 6b 39 4a 3e
       0.07101006 0.046866328 -0.21098888 0.19748466
000290 29 9b ab be 03 5c 9b be 6f 22 f5 ba 62 bc 39 be
       -0.33516815 -0.30343637 -0.0018702279 -0.18138269
0002a0 70 e6 f7 3d 88 6a e2 bd b3 e6 79 be 15 ce b7 3e
       0.12104499 -0.110554755 -0.24404411 0.35899416
0002b0 48 1a 1f be 1b 7a 62 3e 77 16 69 3e 05 7c 19 be
       -0.15537369 0.22116892 0.22762476 -0.14988716
0002c0 77 94 88 3d 74 df c1 3b 53 33 b2 bb ad 16 11 be
       0.066689424 0.0059165303 -0.005438247 -0.14168806
0002d0 5b a9 9c be e6 e1 26 bd 5c 57 9d bd 78 ba 5f bd
       -0.30597958 -0.040742777 -0.07682678 -0.05462119
0002e0 1e 2e c4 be d5 a0 3d be 68 a8 80 3e 0b be 69 bc
       -0.38316435 -0.18518384 0.25128484 -0.014266501
0002f0 8e 46 06 3e e4 4d 66 bd 86 d6 5a be 42 e6 8f be
       0.13112852 -0.056226626 -0.21370897 -0.2810536
000300 8b ac dd bd 2f 10 12 3d a0 e5 0d 3e fc 9d 22 3d
       -0.108239256 0.035659965 0.13857126 0.039701447
000310 9a 45 bc bd b0 d9 32 3e 85 7c a3 3d ed d7 58 3e
       -0.09192963 0.17465854 0.079827346 0.21176119
000320 45 8f dc bd f7 a0 b3 3e 4e 4a 6e 3d 53 01 21 be
       -0.10769514 0.35083744 0.05817633 -0.15723161
000330 9e 8a 58 be 21 c7 32 3d f3 32 a5 3d ac ac 6e 3e
       -0.21146628 0.043646935 0.080663584 0.23308057
000340 3b 9a d3 bd 91 c3 08 3e 1f b3 60 be 83 b8 94 3e
       -0.103321515 0.13355853 -0.2194333 0.2904702
000350 7d 5c c3 bc e6 1c 5c bb 40 69 ab 3c 02 30 fa bd
       -0.023847813 -0.003358656 0.02092421 -0.12216188
000360 5e cb b3 3d 1f 0b f4 bd 92 49 25 3e d9 6e 9b 3e
       0.087790236 -0.11916184 0.16141346 0.30358008
000370 81 b6 fc 3c 5e e7 c2 bd e7 46 8a 3e 31 dd 5a 3e
       0.030848743 -0.09516786 0.2700722 0.2137344
000380 a7 72 d5 3d d4 3b 40 3e e2 c4 25 be 09 b3 bc 3e
       0.10422259 0.18772823 -0.16188386 0.36855343
000390 1a 64 6f 3e 5a d7 19 bd 3a 57 3c 3e 89 f8 1a be
       0.2337803 -0.03755889 0.1839265 -0.15133871
0003a0 10 90 32 3e 2a b0 9d 3d ac cb d7 3d 81 8b d5 bb
       0.17437768 0.07699616 0.10536894 -0.0065168743
0003b0 dd 82 ca 3d 27 9f 5c 3e bf 44 8e bc 10 a0 15 bc
       0.098882414 0.21545087 -0.017366765 -0.0091324
0003c0 e3 e9 6e 3e a2 3f 2d be b2 f7 55 be 0f 6f 16 3d
       0.23331408 -0.16918805 -0.2089527 0.036727007
0003d0 56 7b 65 bd 31 29 0c be 30 f7 19 be 7c 10 93 3e
       -0.056025825 -0.13687588 -0.15035701 0.28723514
0003e0 9b 97 fc bc 6b ce d4 3d 47 f0 da 3e c6 ba a6 bd
       -0.03083401 0.103909336 0.42761442 -0.08141093
0003f0 c6 6a 06 3e 06 96 59 3e d5 af 85 bd e8 55 d7 bd
       0.13126668 0.21248636 -0.06527678 -0.10514432

decoder.weight_hh_l0 f4 [512, 128]
000000 2a e6 8c bd a3 20 64 3d e1 94 85 bf fc b6 05 be
       -0.06879838 0.055695187 -1.0436059 -0.13058084
000010 65 34 4d 3d f2 a2 c0 3e 49 45 4a be ee 95 51 be
       0.050098795 0.37624317 -0.19752993 -0.2046735
000020 eb b1 d7 3d 1f 5d fd 3e 38 e6 4c 3d 18 f9 20 3f
       0.10531982 0.49485108 0.05002424 0.62880087
000030 cf 7c 3e bf 0a 8e d3 bd 53 e5 0f bf cb fe f1 bd
       -0.7440919 -0.10329826 -0.56209296 -0.11816176
000040 27 11 4e be 47 3a bb 3d 1e 1e dd bd 2f 90 75 3e
       -0.2012373 0.09141975 -0.1079676 0.23980783
000050 5b 79 92 3c 5f e2 2b 3e 37 7e 30 3f ba 29 8f 3d
       0.017880132 0.16785572 0.6894259 0.069903806
000060 12 22 0c be 76 b8 cd 3e c8 42 1f 3e db cb 88 be
       -0.13684872 0.40179795 0.15552819 -0.2671803
000070 09 3b a9 3d 84 c8 00 bd dc 7f 98 bd 83 bc ff 3d
       0.08263213 -0.031441227 -0.07446262 0.12487128
000080 dd 4a 56 3e 68 b2 c2 3e 29 a1 07 3f 52 c0 e8 3c
       0.20926996 0.38026738 0.52980286 0.028412018
000090 c0 d5 ad be 46 62 97 bd 44 18 25 3e c9 b5 b4 bd
       -0.3395214 -0.07391791 0.16122538 -0.08823735
0000a0 a1 b4 22 3e f7 bb a9 be 41 6c 90 bd bc c7 86 be
       0.15889217 -0.33151218 -0.07051898 -0.2632426
0000b0 80 41 47 bd 9d ff 52 3f a6 9e 8a 3e c0 28 83 3d
       -0.04864645 0.82421285 0.27074164 0.06404257
0000c0 3a 73 a9 3d ec 1d 27 3e 57 40 79 3d 7c f5 31 3e
       0.08273931 0.16320008 0.060852375 0.17378801
0000d0 94 b9 52 be b1 b7 ba be 6e 9c 20 3e f0 1b 8e bd
       -0.20578605 -0.3646827 0.15684673 -0.069389224
0000e0 5f 74 85 3c 19 6e 0a 3d 48 0d 3d 3e 90 d9 41 be
       0.016290842 0.033796404 0.18462098 -0.1893065
0000f0 89 c8 27 3d 9e ef f1 3d 5b cc 15 3f 4c b4 9b 3e
       0.04096273 0.118132815 0.58514947 0.30410993
000100 ce 0b 8a 3e 1a 1c a9 bf 6e 13 1d be 74 41 e5 3d
       0.2696213 -1.3211701 -0.15339443 0.11194125
000110 9b 3f 8b 3c da d6 79 bd 82 ff 98 bf e3 c9 70 3e
       0.016998103 -0.060995914 -1.1952975 0.23514514
000120 ff f1 e0 3e 67 1a 42 3e 81 c3 47 3f 66 5a 87 3f
       0.43934628 0.18955384 0.7803269 1.0574462
000130 e8 24 94 3e c9 9e 98 3c b9 0b 67 3d 8a 2a ce be
       0.28934407 0.018630402 0.056407664 -0.4026683
000140 37 43 0a 3e 95 03 f0 bd 68 7c 67 bc b4 b7 0d bf
       0.13502203 -0.11719433 -0.014128782 -0.55358434
000150 95 13 24 3e 82 93 30 be 94 f1 4d 3e e0 43 7c 3e
       0.16023095 -0.1724377 0.20111686 0.24635267
000160 20 34 dc 3e 2f 06 14 3e 2e 3a 63 3e 6d 55 90 be
       0.43008518 0.14455484 0.22190163 -0.28190175
000170 84 e7 13 3f 7d 93 1a 3e 05 f2 94 bd 87 b4 25 be
       0.5777514 0.15095325 -0.07272724 -0.16182147
000180 5c 33 1c be fb e7 5f 3e 8e 16 3a 3e 69 fd 16 bd
       -0.15253967 0.21865837 0.18172666 -0.036862765
000190 37 6e c7 be 6b ff 74 bd 9d 21 b3 3e 90 cf a7 be
       -0.38951275 -0.059813898 0.34986582 -0.32775545
0001a0 6f e6 fc bc ff 5a 94 bd fd f2 52 3e 71 63 d8 bd
       -0.030871598 -0.07243919 0.20600505 -0.10565842
0001b0 22 ec 02 bf 94 8d 15 3d 55 1a 66 3e 3c b8 c9 3e
       -0.5114156 0.036511973 0.22470982 0.39398372
0001c0 69 f8 07 3e 61 2b 96 be a3 77 e4 bd d3 1e 5a 3d
       0.13278355 -0.2932997 -0.111556314 0.053252053
0001d0 58 43 87 3d 2b 05 89 bd e9 96 f7 bd fd 83 db be
       0.06604642 -0.06690439 -0.12089331 -0.42874137
0001e0 ac ce 76 3d 15 61 07 3e 30 b7 9f 3e 8f e0 21 3f
       0.06025569 0.13220628 0.31194448 0.63233274
0001f0 30 38 92 be 34 86 4f 3e 66 18 5e 3c 64 3e fb bd
       -0.28558493 0.20266038 0.013555622 -0.122677594
000200 48 00 93 be 0b 3e 9f be aa eb df 3d 98 11 32 be
       -0.28711152 -0.31102023 0.10933621 -0.17389524
000210 1a a8 49 be 46 52 13 be 6e a4 cb be 8b 25 3d be
       -0.19693032 -0.14386854 -0.39773887 -0.18471353
000220 8a 8d 35 3e 67 27 db 3d 3a 8c a3 3e 1e 3a 47 3c
       0.17729774 0.10700875 0.31942922 0.012159852
000230 19 a2 c5 3d ed 97 0b be 1c 9d 5b be 27 f2 91 be
       0.09650058 -0.13632174 -0.21446651 -0.2850506
000240 2c 22 62 be fb 1d 11 3e 2c 1f 45 bb f6 6f 20 3e
       -0.22083348 0.14171593 -0.0030078394 0.1566771
000250 1f f1 a5 bc 08 41 f3 3e e2 a5 b6 3d 06 3c 27 be
       -0.020256577 0.47510552 0.089183584 -0.16331491
000260 d5 f5 82 be 5a 26 ca 3e 7a 50 f2 3d 3c ed 46 3e
       -0.2557818 0.39482385 0.11831756 0.19426435
000270 fc 7b 4c 3e 23 a1 ad 3e 83 0a b0 be 7f eb 8c 3e
       0.19969171 0.33912 -0.3438302 0.2752342
000280 85 b0 ef 3d c6 96 64 3e 0f ab 12 be c0 a0 82 3e
       0.1170359 0.2232314 -0.14323066 0.25513268
000290 53 7b 38 be 32 ec a5 be 7e 76 9f 3d 17 6b 23 be
       -0.18015794 -0.32406765 0.077862725 -0.1595882
0002a0 92 bb 7f 3e c6 0b 04 bf fe 22 b5 be c2 f7 c7 3e
       0.24973896 -0.51580465 -0.3537826 0.39056212
0002b0 f8 c3 9b be 1f 43 b1 3e 03 44 a0 3e f5 74 dc bd
       -0.3042295 0.34621522 0.3130189 -0.10764495
0002c0 28 89 c9 3e 01 1c 07 be b9 0c 84 be 9a 6a 57 3d
       0.39362454 -0.13194276 -0.25790957 0.052591898
0002d0 93 8f 06 bf 00 82 5f be 81 de 14 bc 65 ba 87 3d
       -0.52562827 -0.21826935 -0.009086252 0.06627349
0002e0 b9 a9 cb be b1 8e 42 3e 43 30 98 3e 5d cd ef 3d
       -0.39777926 0.18999745 0.2972432 0.11709092
0002f0 af e2 a4 be 63 af 23 3e 98 d0 3f be 1c 3e 98 3e
       -0.32204196 0.15984873 -0.18731916 0.29734886
000300 2d bb 0f 3e e0 11 d8 bd 9a 2d 7b bd df 22 03 be
       0.14036246 -0.105502844 -0.061322786 -0.12806271
000310 52 51 76 3e f4 62 48 3e 7d fc 0a bc 37 e4 81 3e
       0.24054459 0.19568998 -0.008483049 0.25369427
000320 fc d5 40 be 08 b5 6c 3d 14 55 47 3e 1f 3b ad 3e
       -0.18831629 0.057789832 0.19466048 0.33834168
000330 a2 25 2b be 5c bc be 3d b9 3f 90 3e 50 99 8f 3c
       -0.16713575 0.093132704 0.28173617 0.01752916
000340 e8 2c 8a 3e e0 1d b6 be 52 d3 e4 be 6c 1f c8 3c
       0.26987386 -0.35569668 -0.44692475 0.024429046
000350 a6 ab 0a 3e 8a 44 35 bc 51 72 8d 3d a7 ba ba 3e
       0.13542041 -0.011063704 0.0690657 0.3647053
000360 54 3b 1d 3e 4c ee 85 3d 3e fb fe 3d b0 0b c4 3e
       0.15354663 0.06539592 0.124502644 0.38290167
000370 bb 3f 41 3e 3b 13 8d 3e 4a c4 11 bf a4 0a dd bd
       0.18871967 0.27553734 -0.5694014 -0.10793045
000380 14 65 c9 3d 4d 4a b0 3e d5 f1 54 3e 3e 1b 3c bc
       0.09833732 0.34431687 0.20795377 -0.011481104
000390 61 99 4a 3e 83 e6 eb 3d 88 7d 19 3e 45 b0 37 be
       0.19785072 0.11518576 0.14989293 -0.17938335
0003a0 b7 8f 0e 3e a5 9b eb 3d ef 4f 15 3e b4 1c 92 3e
       0.1392201 0.11504296 0.14581273 0.28537524
0003b0 05 9d 70 be 4c 80 63 3e 5a b4 15 3e 2d 56 52 be
       -0.23497398 0.2221691 0.1461958 -0.20540686
0003c0 e2 8a c5 3e 5d ef 0d be a1 11 96 be 7e c6 86 3e
       0.38582522 -0.13860841 -0.29310325 0.26323313
0003d0 d6 57 fe 3c 9d ca 86 be 4b 1f b7 bb b5 50 9d 3e
       0.031047743 -0.26326457 -0.005588447 0.30725637
0003e0 63 84 ca 3e 90 5c 6c 3e ab 4f 61 3e d4 72 4e be
       0.39554128 0.23082185 0.22003047 -0.20160991
0003f0 e2 3f 8c 3e 1f b1 ef 3d 6f 46 11 3e 5f a2 7f be
       0.2739249 0.11703705 0.14187025 -0.24964283

decoder.bias_ih_l0 f4 [512]
000000 1e bd 06 be 99 ce 51 bf 81 aa 8a 3b 7d 8e 1f bf
       -0.1315808 -0.8195587 0.0042317514 -0.62326795
000010 b7 51 01 3b 12 fc 3b bf d1 03 09 3c d3 5e 30 bf
       0.0019732544 -0.73431504 0.008362726 -0.6889469
000020 38 01 a4 be 99 fe 0e bf 7b 63 c8 be 16 c1 95 be
       -0.3203218 -0.55857235 -0.39138398 -0.29248875
000030 6a 32 79 3d cc 3f 4a be bd 05 7d 3e fd d6 ab be
       0.060839094 -0.19750899 0.2470922 -0.3356246
000040 e9 a1 05 bf d7 5d 63 bf 47 82 10 bf d4 d4 45 be
       -0.5220018 -0.88815063 -0.5644879 -0.19319469
000050 f1 95 b5 be e6 ae 49 b9 e7 dd 61 be fc 39 82 be
       -0.3546596 -0.00019234009 -0.22057305 -0.25434864
000060 c4 59 8a 3d 81 8e 2a be dd ec 21 bf a9 d8 0c bf
       0.06755403 -0.16655923 -0.6325205 -0.550181
000070 79 bb 03 bd c4 10 e7 bd 11 7b 24 be 7d 3e d4 bd
       -0.03216121 -0.11282495 -0.16062571 -0.10363481
000080 ea d6 09 bf a1 ff 98 be 3f 0c 92 be 69 bd 54 bf
       -0.5384356 -0.2988253 -0.28524968 -0.83101517
000090 8e 37 ce bd 69 75 cb be 39 d5 b3 be 21 be d6 bd
       -0.1006919 -0.39738014 -0.35123613 -0.10485483
0000a0 3a c4 56 be 2a 38 aa 3d 49 0b 24 bf fb d9 06 bf
       -0.20973292 0.08311494 -0.6407972 -0.5267636
0000b0 dc ca 94 bb 19 0b ca bd 9f b3 9c be 07 02 c3 bc
       -0.0045407843 -0.09865398 -0.3060579 -0.023804678
0000c0 8d 20 14 be 25 7f df be 81 91 23 be 49 54 c9 be
       -0.14465542 -0.4365169 -0.15973474 -0.39322117
0000d0 89 64 f7 3c 3d 81 7c bf cb 29 1c bf cd 22 59 3e
       0.030199306 -0.986347 -0.6100127 0.21204682
0000e0 36 cf 13 bd cd 9b 19 bd 38 b0 11 be 58 c8 73 be
       -0.036086284 -0.0375021 -0.14227378 -0.23806894
0000f0 5b f0 2b be ac e9 63 bf ca e2 11 bf 89 93 20 be
       -0.16790907 -0.8902843 -0.5698668 -0.1568128
000100 d3 aa 69 be a9 e7 6c be ed ff 25 be 4a de dc be
       -0.2281907 -0.23135246 -0.16210909 -0.43138343
000110 af e0 1f bf 0b 3c b4 be cd 01 29 bf 55 fd 8e 3b
       -0.62452215 -0.3520206 -0.6601837 0.0043636956
000120 b8 94 c4 be af 23 29 bf db ff 48 bf 2c 01 44 be
       -0.38394713 -0.66070074 -0.78515404 -0.19141072
000130 8e 53 87 bf f3 9a 19 bf 4d 72 81 bd 82 f8 11 bf
       -1.0572374 -0.6000206 -0.06320629 -0.5701982
000140 75 7f 33 bd e1 6a 3d 3e 72 33 98 be c8 12 36 be
       -0.043822724 0.18497802 -0.2972675 -0.17780602
000150 96 e9 27 bf 2b d1 fa bd 8f 77 23 bf b6 d1 9f be
       -0.655908 -0.12246927 -0.63854307 -0.31214684
000160 43 48 22 bd bc 4a 3c bf 4f c6 55 bf 37 72 bc be
       -0.039619695 -0.73551536 -0.8350572 -0.3680589
000170 5d 5b 67 bf 9a b2 67 3d e7 a8 a0 3e e6 cf df be
       -0.90373784 0.056566812 0.31378862 -0.437133
000180 8f 6f 30 bf f3 43 bc be 20 b0 91 bd bb bd 2f bd
       -0.68920225 -0.3677059 -0.07113671 -0.04290555
000190 3f 8c a3 be ac 0b 28 bf 26 c7 53 bf ec f2 66 bf
       -0.31942937 -0.6564281 -0.8272575 -0.9021442
0001a0 5f 2c 44 be 7c 4e 64 bf 02 81 ac bf 82 f9 00 bf
       -0.19157551 -0.8918226 -1.347687 -0.5038072
0001b0 0f f5 31 3e 82 99 49 be 2c eb 26 bf 3e 1e 98 be
       0.17378639 -0.19687465 -0.65202594 -0.29710573
0001c0 cf ed 83 be 3a 57 a4 be 75 48 82 be d4 83 b9 bc
       -0.2576737 -0.320978 -0.25445905 -0.022645868
0001d0 ba 5f 5d 3d f8 fa bd bd 2b 85 41 be b7 83 08 bf
       0.05404637 -0.09276384 -0.18898456 -0.5332598
0001e0 18 7d 34 bd 93 58 27 be a1 e6 0f bf 78 e6 29 bf
       -0.04406461 -0.16342382 -0.56211287 -0.6636729
0001f0 61 a8 82 be a1 37 11 be 2c 17 53 be dd 44 49 bf
       -0.25519088 -0.14181377 -0.20614308 -0.786207
000200 44 4e 88 bd 65 58 57 be da 1d c2 bd c0 c4 3c be
       -0.06655553 -0.21029814 -0.0947835 -0.18434429
000210 8f 96 9c be 79 86 a5 be b8 5b 34 3d 50 86 02 3c
       -0.30583617 -0.32329157 0.044032782 0.007966593
000220 a9 e6 0b be 30 49 1c 3e f0 65 af 3c 5b f9 dd be
       -0.13662209 0.15262294 0.021410912 -0.43354306
000230 3a 6d 48 bf c4 a0 1e be ab c5 e4 3d b4 b9 db bd
       -0.78291667 -0.15491015 0.11170515 -0.107287794
000240 25 83 0c be 5a 08 6a be 3a a9 02 be 4d 00 2b bb
       -0.13721903 -0.22854748 -0.12759867 -0.0026092709
000250 97 30 14 be 1e b3 39 bc 53 1e 68 be 91 a1 3f bd
       -0.1447166 -0.011334209 -0.22667818 -0.04678494
000260 6b 28 28 bd 1b bf ee bc dd 3f 90 be ef d6 6c bf
       -0.04105417 -0.02914386 -0.28173724 -0.9251546
000270 a1 a9 6e bd 7f 9a bd bd c9 fe 04 be 83 04 8b 3d
       -0.05826724 -0.092579834 -0.12987818 0.0678797
000280 c4 1a 6c be f2 a7 1c be 79 62 72 ba b4 7b fd bd
       -0.23057085 -0.15298441 -0.0009246241 -0.1237711
000290 5c 80 26 be 9e 55 0d be 4b d4 ac be a7 69 5a 3d
       -0.16259903 -0.13802192 -0.33755717 0.053323414
0002a0 7c bc 84 be 51 ff 42 38 b2 30 d4 3d 0c 0f 10 be
       -0.25925052 4.6490986e-05 0.103608504 -0.1406824
0002b0 b3 5d f9 3b d4 c1 38 be 27 e0 1a 3e 05 c3 0f bf
       0.007610047 -0.1804269 0.1512457 -0.5615695
0002c0 bd 79 b2 b9 7f 3f bf be 10 77 35 be 2a 4e 44 3c
       -0.00034041508 -0.3735313 -0.177212 0.011981526
0002d0 64 c0 90 bd 1e b0 bb be d4 55 50 bd b7 ad 37 bd
       -0.070679456 -0.36657804 -0.050863102 -0.0448434
0002e0 86 49 3e 3d 06 52 25 3e b0 74 d5 bd a8 15 05 bf
       0.046456836 0.1614457 -0.10422647 -0.5198617
0002f0 59 b7 c2 bc 50 de 4f be 55 06 a7 be a1 e5 85 bd
       -0.023769068 -0.20299649 -0.32622018 -0.06537939
000300 ff e6 4c bc 4b 09 1c bf e4 8e 85 be b2 13 59 be
       -0.012506246 -0.6095168 -0.2608558 -0.2119892
000310 8b 1c b7 be 92 5f f7 3c 34 32 dc be 26 4c 00 be
       -0.35763964 0.030196939 -0.43007052 -0.12529048
000320 ef 8a 19 bf 32 f8 28 be 7a 25 06 bf bb 79 0c bd
       -0.5997762 -0.16500929 -0.52400935 -0.03429578
000330 2f d0 49 be db 88 4b bf 93 0b 6c bd 28 0e 85 bd
       -0.19708322 -0.795057 -0.057628226 -0.06496841
000340 92 4d e3 bc a3 c1 ec 3d 29 a0 7c bd ea 68 1a be
       -0.02774695 0.11560371 -0.061676178 -0.15079084
000350 37 e0 8d be 14 35 92 be 15 5d 72 be 1a 09 ac bd
       -0.27710125 -0.2855612 -0.2366832 -0.084001735
000360 b0 1b 0b 3e 02 03 15 bf 99 af 60 be 44 8e 29 be
       0.1358478 -0.58207715 -0.21941985 -0.16558176
000370 1f 0a ad be ac 0b c7 3c 02 a0 0c 3d f5 50 1d be
       -0.33796784 0.024297558 0.034332283 -0.15362914
000380 f7 0a 4f be 6c b2 00 bd 03 6e 12 3c 32 a4 91 3d
       -0.20219027 -0.031420156 0.008937362 0.07111396
000390 ca c6 bb bd 83 78 a5 be 95 20 eb be eb c6 80 be
       -0.091687754 -0.32318506 -0.45923296 -0.25151762
0003a0 54 f2 d4 bc e0 a0 1d be a6 1c d4 be 73 08 d6 be
       -0.025994457 -0.153934 -0.41428107 -0.4180332
0003b0 30 0b b2 be 6b 6c 39 bd a5 c5 52 be b4 44 fa bd
       -0.3477416 -0.04526941 -0.20583208 -0.12220135
0003c0 9c a2 99 3c 0f cf aa bd d9 86 ad bc 1f b5 c0 3c
       0.018754296 -0.083402745 -0.021182464 0.023523865
0003d0 46 a1 83 bb ac 58 f4 3c e8 61 96 3e a3 c0 16 bf
       -0.004017028 0.029827438 0.29371572 -0.5888769
0003e0 f9 ce 0c ba 96 41 5d 3d de 61 a1 be 70 22 c9 bd
       -0.00053714175 0.054017626 -0.3151998 -0.098210216
0003f0 cc da 87 3d 31 37 b0 3c c7 c7 eb be d0 05 8a bd
       0.06633529 0.021510692 -0.46050856 -0.0673939
